models/embedding_predictor.pth (torch, 4144 bytes, 4 tensors)

fc1.weight f4 [16, 7]
00000000: 623c 5c3e 4108 35be 7703 abbe 3563 b6bc
00000010: 1493 aa3c 45d6 313d 3b91 ddbe 61d7 0fbe
00000020: 3c82 89be 26df a0be cdfc 94be 52ae 1fbe
00000030: 16ea 84be 4793 3ebe def1 93bd 4947 e8bc
00000040: dbae 8fbc 8301 6a3e f9d3 443c d26f 593f
00000050: 485b 013d 3cfd b0be c917 fabb cf95 2b3e
00000060: a7a4 b4be 46e4 70be d3e1 c2be 2faf 0c3e
00000070: 6e1c 19be 0263 593e a70a 993d e436 91bd
00000080: 6872 f63d 9fe8 563d 7b0c d83d 2637 973e
00000090: d9cd bdbb f064 223d 387f 59be 9210 82be
000000a0: ee7a 9a3e 5366 e7be 6cec eb3d 1431 8abe
000000b0: 9d46 b3be 5510 01bf 339e d73d 96f4 52bd
000000c0: cbc6 18be ad92 5c3d fd6e 373e db8d 8f3d
000000d0: 4dcf acbe 502f 093d 4148 82be 3d81 ae3b
000000e0: b084 7cbe 75be 343d 5643 72be 2922 77be
000000f0: 0a28 2d3d 7565 83be 34b3 76bd 6986 8c3e
00000100: db5d a7be e483 58be 3ff6 1ebe c755 143e
00000110: 227b 373e c08c 21be a710 57be ce7b 763d
00000120: 4de4 a63d 1f4f f8ba c2c2 e2bd a06c 0b3e
00000130: b557 e6bc 34b9 0c3e 90e4 f03d 32cc e8bc
00000140: 3a25 933e 5b95 823c 543b 7a3f f452 fabc
00000150: 76e6 a13c ed22 f73d 9bf5 24bc 6f72 373e
00000160: 47fe 973d d07a 80bd 82dc 4e3c 588f a1bd
00000170: a270 debd 17ca 5cbc ce0a d33e 5c99 56bc
00000180: d16c 8b3f 1ca5 f23c c3a4 c6be de0d 02bd
00000190: 5a3f d7be 7eaf 00bf 4d5f 783c f8fb 463e
000001a0: 5be7 153e 1839 7bbd 961f 74be dac1 8f3e
000001b0: 816f 1ebe 9aed b5be c05b 283e c9ca bfbe
0.21507409 -0.1767893 -0.3340108 -0.022264102 0.020822085 0.043417234 -0.43274865 -0.14047004
-0.26857173 -0.3142025 -0.29099122 -0.15593842 -0.25959843 -0.1861087 -0.07223867 -0.028354304
-0.017539432 0.22852139 0.012013429 0.8493625 0.031581193 -0.34568202 -0.00763223 0.16756366
-0.3528187 -0.2352458 -0.38062915 0.13738702 -0.14952251 0.21229175 0.07472735 -0.07090548
0.1203354 0.05246794 0.105492555 0.29534262 -0.005792361 0.039647043 -0.21239936 -0.25403267
0.30171913 -0.45195255 0.11519703 -0.2699057 -0.3501481 -0.50415546 0.10528221 -0.051502787
-0.14919583 0.05385082 0.17913432 0.07009479 -0.33751908 0.033492386 -0.2544575 0.005325465
-0.24659991 0.044126946 -0.23658499 -0.24134125 0.042274512 -0.25663343 -0.060229495 0.27446297
-0.32688794 -0.21144062 -0.15523623 0.14485846 0.17918065 -0.15776348 -0.21002446 0.060176663
0.08149014 -0.0018944478 -0.11072303 0.13615656 -0.028117994 0.13742524 0.11762345 -0.02841768
0.2873934 0.015940359 0.9774678 -0.030557133 0.019763213 0.120672084 -0.0100683225 0.17914747
0.074215464 -0.062734246 0.012625815 -0.07888669 -0.10861327 -0.013475916 0.4121918 -0.013098087
1.0892583 0.029619746 -0.38797578 -0.031751506 -0.4204052 -0.5026778 0.01515944 0.19432056
0.14639036 -0.061333746 -0.23840174 0.28077585 -0.15472223 -0.35532838 0.1644125 -0.374594

fc1.bias f4 [16]
00000000: 9e48 523e 4fec 13be a75c 353f 768f 5ebc
00000010: c12e 90be 3483 f9bd 395d 00bf ce15 88be
00000020: 58b9 4ebe 9429 b9bd 10ca 9fbe 79c4 cb3f
00000030: db6f ac3d 9e6b f23e 7baa 2c3e 6337 d8bc
0.20535514 -0.14445613 0.708445 -0.013584008 -0.2816067 -0.12183228 -0.50142246 -0.26579136
-0.2018789 -0.090411335 -0.3120885 1.5919334 0.08419772 0.4734773 0.16861908 -0.026393598

fc2.weight f4 [22, 16]
00000000: a586 843e f445 6c3e c824 673e 97c4 16be
00000010: 7194 573d b41a e5bd 37ee 8a3e eb98 783d
00000020: 6a9e b0bd dc39 b23d 81a6 a13d 9a62 443e
00000030: 035a 4cbd 7a6a e83d b711 d1bd e8e4 d6bd
00000040: db94 bfbd 10ad 2d3e 5031 493c b81c acbc
00000050: 453a e33d b87d 80bd 0475 6c3d 6db2 c2bc
00000060: abe5 c5bc e120 af3d 63b9 02bd d97c 7e3e
00000070: b67c c8bd c638 343e a6d9 f1bc fa48 5e3e
00000080: 7454 423e 60d5 ef3c fe31 883d beee aa3d
00000090: 3bc7 b93c aed5 023d 8a7f b13e b564 52bd
000000a0: f2cc f23d 5101 ff3c 6265 bcbc fb03 143e
000000b0: 69b4 613e 2c0a a33d 2b81 7e3e 0adc 5a3e
000000c0: 67aa 773e b48e 023e 6ef0 0b3e c39a 5f3e
000000d0: 9ca7 243d 523d 653e e3c8 b73d 46da 403d
000000e0: ad9e dc3d 343d c33c c3d1 fabd 8fe3 623e
000000f0: f6af 8ebd 8f7d 3d3e ad1b ba3d 887b 1dbe
00000100: e84d 273e a046 193c 5710 983e 9eb5 97bd
00000110: 1ca2 6b3d e524 62bc 3038 b43d f606 82bd
00000120: 143b ffbc 2405 093e 3f5a 973d 8a14 123e
00000130: 2aef fb3d 7c75 3fbd ece0 243d 63f1 35be
00000140: 06df 033e 7846 393d ff3c 40bd f034 b3bc
00000150: 65e3 003d ec6b 6fbd b1e4 fdbd f432 da3d
00000160: da4f 1abe 60d2 113d 3936 adbd 9a71 333e
00000170: 8dbd b03c e342 a93e efad 053c 4499 32be
00000180: c6ba 1cbe ceb9 7e3e 7c03 043e 8d3d 9ebe
00000190: 4e13 193d 9430 713c df0c 34bd 6d97 1c3e
000001a0: c008 723d 24b6 323e 16f3 11be e6d1 733d
000001b0: 8673 143e e952 3a3e 5b2a 85bd 47bf 54be
000001c0: cd8e c3bd 1281 74be 173c 2fbe e342 383c
000001d0: 082e f53d dc6c 323e d206 0c3e c1e5 1fbd
000001e0: bf7e 753b 2a04 503d bd39 12be dc88 503e
000001f0: cf52 b93c fb74 893e 88b3 853d 90ee 90be
00000200: ae9e bbbd 70cc 893c 7f3c b23d 35c5 693e
00000210: fd58 e6bb 5c76 b53e a25d dfbd 7a34 85bd
00000220: 0828 dcbd 3450 87bc c8c5 3d3e e7f8 2c3e
00000230: ea57 103e 6b0b 4d3e 3e1e 053d 08bd 293e
00000240: fa01 2e3c 88e5 79bd 0939 80bc db45 30bd
00000250: 5a96 cd3d 4a67 7e3d c36d ea3d 6010 f13c
00000260: 1629 36be 12ae df3d 106f 8ebe d2ac 163e
00000270: 8ea6 a93d 015d 403e e003 503d 4014 8c3d
00000280: 7b9d 0e3e e02d 053d f206 b53e ebc4 cebc
00000290: b755 eebc 5534 be3e f756 fe3d dacf 063e
000002a0: b725 353e 4005 693d 3429 4e3c 8747 1a3e
000002b0: fb0c 143d 27a9 bb3d 9be5 48bd 14f8 023e
000002c0: 37d1 9fbd 80b4 e53b 1228 b33e a4f5 dfbd
000002d0: 3973 b1bd 4cae 46bd d02a 563d 9309 873e
000002e0: b6da 13be 536a 493d cdf6 843c 81be fc3d
000002f0: 5546 463d 37be 353e 848d 043e 4897 f93d
00000300: 48f1 243e 9afb 25be af87 023e e93a 38be
00000310: 4b66 fb3d e364 853d fb77 a23e 81ee 9fbd
00000320: 5abf b5bd 1cd1 b93d a5ce 0a3e 58c3 823e
00000330: cc8f a1bd ffc1 4d3d acb0 a23d aa90 7bbc
00000340: 8018 233d f483 29be bc32 d23d 2ea5 713d
00000350: d776 2abd 5765 07be 4b0b 98bc 7873 7b3d
00000360: b1c9 aa3c cc41 023c 6c23 0fbb a842 d53d
00000370: 493c 7a3e 8f35 493e 73e4 823d d423 b8bd
00000380: 00f3 703e 80d0 6fbe 98d5 0a3d b471 6dba
00000390: 8ba1 0e3e 8b25 053e 8b5d 91be e3db ebbd
000003a0: 5524 3f3d ca92 a03d eaa9 c1bd b886 783e
000003b0: fa98 e2ba 97ed 7e3d 6732 903d 131d ac3d
000003c0: c91c 9e3e 3c82 723e 7ee0 3b3e 23c0 0abd
000003d0: 5a57 9e3d 6ba9 243c 23a3 bfbd 8472 653d
000003e0: 1f63 833d ccfd 0d3e a01e 69be c3af 1d3e
000003f0: 829f b1bc 184f eb3d 4e4b 13be 11af 92be
0.25883976 0.2307356 0.22572625 -0.1472343 0.0526318 -0.11186734 0.27134869 0.06069271
-0.08623965 0.08702442 0.07893086 0.19178239 -0.04989053 0.11348434 -0.10208457 -0.10492879
-0.09354564 0.1696055 0.012279823 -0.021009788 0.110950984 -0.06273979 0.057728782 -0.02376672
-0.024157366 0.08551193 -0.03191508 0.24852313 -0.09789412 0.17599782 -0.029522728 0.21707526
0.18977529 0.02927655 0.0665016 0.08346318 0.022678008 0.031942062 0.34667617 -0.051365573
0.118554965 0.031128557 -0.022997562 0.14454643 0.22041477 0.079609245 0.24853961 0.21373
0.24186097 0.1274975 0.13665935 0.2183638 0.040198907 0.22386673 0.08973863 0.04708316
0.107724525 0.023832895 -0.1224704 0.22157119 -0.06967156 0.18504928 0.0908731 -0.15379155
0.16338313 0.009355217 0.29699966 -0.074076876 0.057527646 -0.013802742 0.087997794 -0.06348984
-0.0311561 0.13380867 0.0739026 0.14265648 0.12301476 -0.0467429 0.040253565 -0.17767863
0.12878045 0.04523322 -0.04693317 -0.021875829 0.03146686 -0.05845253 -0.12397135 0.1065425
-0.15069523 0.03560102 -0.08457608 0.17523804 0.02157476 0.33058843 0.008159145 -0.17441279
-0.15305623 0.24875566 0.12891954 -0.30906335 0.037371926 0.014721055 -0.043957587 0.1529214
0.059090376 0.17452294 -0.14252886 0.059526347 0.14497194 0.1819569 -0.06502219 -0.20776092
-0.095487215 -0.23877361 -0.17112766 0.011246416 0.119716704 0.17424339 0.13674477 -0.03903747
0.003745958 0.05078522 -0.14279838 0.20364708 0.022622494 0.26847062 0.065283835 -0.2830701
-0.09161125 0.016821116 0.08702945 0.22829135 -0.007029651 0.35441864 -0.10906531 -0.0650415
-0.10749823 -0.016517736 0.18532479 0.16891824 0.14096037 0.20023887 0.032499544 0.16576016
0.010620588 -0.061009914 -0.015652196 -0.04303537 0.10038443 0.062110223 0.11446717 0.029426754
-0.1778911 0.10921873 -0.2781911 0.14714363 0.08283721 0.18785478 0.050784945 0.068398
0.13927262 0.032514453 0.3535686 -0.025240382 -0.029093606 0.371493 0.12418931 0.13165227
0.17690168 0.056889772 0.012583066 0.15066348 0.03614519 0.091631226 -0.049047094 0.12789947
-0.078035764 0.0070100427 0.3499151 -0.10935524 -0.08664555 -0.048506066 0.052286923 0.26374492
-0.144389 0.049173664 0.016230965 0.12341023 0.048406918 0.17748342 0.12944609 0.12187058
0.16107666 -0.1620926 0.12747072 -0.17991222 0.1227537 0.06513383 0.31732163 -0.07809163
-0.08874388 0.090730876 0.13555391 0.2553966 -0.07888755 0.050233837 0.07943854 -0.015354315
0.039818287 -0.16554242 0.10263583 0.05899542 -0.04161724 -0.13222252 -0.018560072 0.061389416
0.020848127 0.0079502575 -0.0021841181 0.10413104 0.2443706 0.19649337 0.063912295 -0.08991209
0.23530197 -0.2341938 0.033895105 -0.00090577756 0.13928811 0.13002603 -0.2839168 -0.115165494
0.04666551 0.07840498 -0.09456237 0.24270141 -0.0017288022 0.062238302 0.070408635 0.08403983
0.30881336 0.23682493 0.18347356 -0.033874642 0.07731505 0.010050158 -0.09357288 0.056017414
0.0641539 0.13866347 -0.22765589 0.15399079 -0.021682505 0.11489695 -0.14384195 -0.2864919

fc2.bias f4 [22]
00000000: 2d6a cb3e 072a 153f cac2 e43e d2c7 123f
00000010: e9b5 023e 791c 133f 3731 233e a08e 043f
00000020: 2c2f cd3e 7378 2d3d e74d e63e 6581 533e
00000030: 108c 893e 1273 893e b30b c43d 2ad6 0b3f
00000040: ceae 263e 6b56 b83e 65ab 483f 7283 c53e
00000050: c84e c13e 9a7b df3e
0.39729443 0.58267254 0.44679862 0.5733615 0.12764706 0.5746532 0.15936743 0.5178013
0.40075052 0.042351197 0.4498131 0.20654829 0.26864672 0.26845604 0.09572544 0.54623663
0.1627762 0.36003432 0.7838653 0.38576847 0.37755418 0.43648988
