models/gcn.pth (torch, 3952 bytes, 4 tensors)

conv1.bias f4 [16]
00000000: 0000 0000 c7ba adbd b6ee de3b 0000 0000
00000010: 1e72 c7bd 0000 0000 0000 0000 9af5 c9bc
00000020: 7f0a dfbd c1c3 edbc d240 30be fb0d 22bd
00000030: b0b2 7fbd b5f3 ddbc 7d1a ebbc 0000 0000
0.0 -0.084828906 0.006803359 0.0 -0.09738563 0.0 0.0 -0.024653245
-0.10890674 -0.029024007 -0.17212227 -0.039564114 -0.06242627 -0.027093748 -0.028699154 0.0

conv1.lin.weight f4 [16, 7]
00000000: 9363 b7bd 1e52 4cbe 580c 7c3e f271 c93e
00000010: 7b6f f1bd 42b5 283e e6a2 f8be ca39 24be
00000020: 0934 073e 735b e23d 1691 a4be 495b e7be
00000030: 2776 63be e3f0 8a3e da9a 723e 2998 10be
00000040: 2b64 033e c9f1 f7be 1ea8 a13e 64ec babe
00000050: ea80 d43d d006 a6be 928d 173d 9ebe eebe
00000060: fcc2 95be 4f40 acbe 6c61 02bf ec95 82be
00000070: 9c08 353e 9970 123e ad4c 473d 04fb 07bf
00000080: 5735 d63d 4320 c0be a8ff 94be 5f45 60be
00000090: 17e5 48bc 7d67 99be b6a2 debd 7fff 5bbd
000000a0: 3d19 ec3e deb9 bdbe 4932 04be 724e 31bc
000000b0: c05a b6bd c57d 15bd 2990 cb3e daf3 f5be
000000c0: dbf9 e4be 6f9a cabe 3692 bd3e 53a8 833e
000000d0: cc59 843e 56bc babe d3e3 2bbc 6f80 1d3e
000000e0: abd5 b03e a242 ad3e e237 a63e c6d9 ba3d
000000f0: da69 163d d617 a3be e9e2 59be 2ff1 d43e
00000100: 5a25 d33d 6357 9dbe d7ae 57be d4b3 2e3e
00000110: 6be6 ce3e fdbd 363c 2e76 7d3e 6370 a13e
00000120: 0906 443e f411 04be 2a6d ac3e af4f db3d
00000130: 9057 813e 0ca9 513e 8042 b6be b5dc b4be
00000140: 44b6 76be 65d7 843e 5815 313e e1e1 5c3e
00000150: 6eaa 053a f5e4 6ebc 2f84 e4bd 9ecf a3bd
00000160: b5f8 d63e 1ede 88be a873 d3bd 4317 2f3e
00000170: c423 bf3e 1dcb 89be abcf e83e 142a 20be
00000180: 5e86 35be 1e19 11bd a6dd a4be bcc2 663e
00000190: ec44 943e f997 e03e 92f5 67be c3bc d3be
000001a0: 4651 553e 8fd2 823e facf c1bd 4a57 11be
000001b0: a8b7 b93d 4acb f13c f482 e23e 391d 31be
-0.08954539 -0.199532 0.24614084 0.39344746 -0.11788841 0.16475394 -0.48561782 -0.1603767
0.13203444 0.11052599 -0.32141942 -0.45186833 -0.2221304 0.27136907 0.23691884 -0.14120544
0.1283118 -0.48426655 0.31573576 -0.36508477 0.10376151 -0.32427073 0.037000246 -0.46629804
-0.29250324 -0.33642814 -0.50929904 -0.25505006 0.17679065 0.14300765 0.048657108 -0.53117394
0.104593925 -0.37524614 -0.291013 -0.21901463 -0.0122616505 -0.29961768 -0.108708784 -0.053710457
0.46113005 -0.37055868 -0.12909807 -0.0108219255 -0.08904028 -0.036496896 0.39758423 -0.48037606
-0.44721875 -0.39570948 0.37025613 0.2571436 0.2584976 -0.36471814 -0.010491329 0.15381025
0.34538016 0.338399 0.3246451 0.09123568 0.03672204 -0.31854123 -0.21277966 0.41590258
0.103098586 -0.30730733 -0.2106279 0.17060786 0.4041017 0.011153695 0.24752113 0.31531057
0.19142927 -0.12897474 0.33677036 0.10708558 0.25262117 0.20474643 -0.3559761 -0.35324636
-0.24092966 0.25945583 0.17293298 0.21570541 0.00050989434 -0.014580955 -0.111580245 -0.07998584
0.41986623 -0.26731962 -0.10324794 0.17098717 0.37331975 -0.26912776 0.45470938 -0.15641052
-0.17727038 -0.035424344 -0.32200354 0.22535223 0.28958833 0.43865946 -0.22652271 -0.4135495
0.20831785 0.25551268 -0.094634965 -0.14193454 0.09068233 0.029515881 0.44240534 -0.17296304

conv2.bias f4 [22]
00000000: 29d3 ccbb c468 6d38 43cb a83d 6dd0 593e
00000010: 6b4a 023d f47a 363e 7a0d 41bc 93fe 223e
00000020: 0917 693c 95d6 073e b82e 103e b394 81bd
00000030: 6a30 a23d 29d0 a23d 2b60 8c3d b859 a13d
00000040: 7e45 9d3b 3697 bf3b 9160 613d 8f6f 173d
00000050: a0d5 fa3c 4b75 d3bc
-0.006250758 5.6602774e-05 0.08241894 0.21270914 0.03180925 0.1782034 -0.011782998 0.15917425
0.014226683 0.1326545 0.14080322 -0.0632719 0.079193905 0.0794986 0.0685428 0.078784406
0.004799544 0.005846883 0.055023734 0.036971625 0.030619442 -0.025812766

conv2.lin.weight f4 [22, 16]
00000000: 6503 e6bd bc75 a53e 79db 23be 7261 7dbd
00000010: 8504 83be 4148 c23e a87a 303d 68a1 f4bd
00000020: d92e 2ebe f87b 3abe 69b1 903e 9bcb 08be
00000030: b533 203e a86a e73d 9942 e2bc cc85 52be
00000040: da88 bbbd 7928 91be 1385 083e 6c5c d1bd
00000050: d648 20bd 2b92 7ebd 6adc b63e 732f 4ebe
00000060: c92e 823e 4a7c dabc 9aaa 3bbc 5db5 f7bd
00000070: a1cc b03d 7899 8e3d a561 003d a543 c93d
00000080: dedb 8ebe ed09 72bc 3d9b cebc 7bec bb3e
00000090: d45a 3dbd db31 463e 9f34 093e 7b1d 76bd
000000a0: 304a a0bd 32cb 8d3e 3c43 643d 77fa 4dbe
000000b0: 5f03 cebd d4e7 8a3e 5b8d e13d 3f56 9a3d
000000c0: 736d dbbc 8dea a53e 3fb2 00be 9f25 c93d
000000d0: 52b9 2e3e 2fd3 d1bd 677e 8e3e c67a 2dbe
000000e0: 5571 99bd 06b4 d8bd 99c3 813b bc1d 973e
000000f0: ce9c 4d3d 862b 493e 2c9b 113f d3b2 753e
00000100: ebb0 8d3e 4c80 3d3e a312 4cbc a033 7b3e
00000110: ab6f 11be 2468 6f3e d309 4fbe 2fbf a73e
00000120: 6d34 b3bd aa8b 5bbe 93af 083e c782 aa3e
00000130: f60f a43d 4a53 7b3e 5294 14be 6a42 57be
00000140: b027 8c3e fa43 fcbc 7329 3e3e 1859 53bc
00000150: 7f3b 443e a399 9f3e 477d 523e 95e8 3b3e
00000160: 432a 0d3d 36b0 1b3b 3433 b1bd 18fe 793e
00000170: ff25 af3e f613 323d 5cca fe3d c0fa 8f3e
00000180: fee6 923e d8ca 27be acad 3bbe ae8c bc3e
00000190: 0960 80be add6 413c a3e7 b0be bc0b b3bd
000001a0: 4f08 3abd b30f 923e 8067 603e d196 c9be
000001b0: eb78 a23e aa1b 73be ed7f 36be 01f1 99be
000001c0: 4879 8fbe e8b6 823e b230 d23e b285 903e
000001d0: ba72 853e 71f2 c03d 5548 c4be 3542 e43e
000001e0: 586e 833d 8f8f 603c dfd4 e6bd a96f 69bd
000001f0: 4b05 253e 65a6 883e 7469 ebbd 6e5f e73d
00000200: 4878 993e 591c dc3d 7fd1 94be b2b6 aebe
00000210: 50a1 85be aa57 bbbe eeea 85bd ef94 63bd
00000220: 1b0b 69be 8902 7c3e 0a96 633e f8e6 963d
00000230: cb8e 78be 2bc4 7bbe 98f7 743e ef59 4b3e
00000240: 2f81 1c3c 82de 643e 8660 9c3e d3fb 213e
00000250: d941 2d3a 1b22 0b3e b56c d73d 3d79 b93e
00000260: 9d90 533e 6921 00be 22c0 24be 411d b23e
00000270: d9ca ff3d c949 61bc 4fa1 0a3e 478e a83e
00000280: cb43 3e3e 23cc 863e 490a 503d 2e5e 0ebe
00000290: 444d 2d3e eb3c bb3e 9cff 0c3e 7da2 e33e
000002a0: 3d59 50be b250 fa3e beff eb3c 0a25 90be
000002b0: 699e db3e f2de 073e 0fbe 56be 2786 c3be
000002c0: 36fb ae3e b832 62be 947e b4be 09bf 7b3e
000002d0: ed2d 8fbe 6cce b2bd 984a 7e3d ab64 9fbe
000002e0: ee2f 623e 5097 95be c023 b13e a68a 29be
000002f0: d9e3 673e 3324 5fbe 5574 72be ab99 7fbd
00000300: 3148 b0bd 19c3 56bd 1804 243e 9257 db3d
00000310: 5801 273d f3d9 bcbe a197 a0be f100 423e
00000320: e959 cc3e 80e1 0abe b2f3 3dbe 5abb 883e
00000330: 0dd6 9a3d 8cf0 e93e cc84 473d 4ff0 c03e
00000340: 76f0 eb3c 4562 783d d3c3 34be 7431 87be
00000350: f459 6bbe 233b 8fbd 23a7 97bd 96ca 74be
00000360: 5577 003e 747c 4dbe 8820 023e 16c2 4cbc
00000370: d769 f43d eed1 7b3e 55c3 f53d 1213 bfbe
00000380: 77e6 afbd 8d8d ba3e 84b9 a43d 77f3 c73e
00000390: 17af f0bc d3e6 6ebd b0de 0e3e 2ee2 c03d
000003a0: bc33 1dbe 1dc9 853d 13d9 033e 4a4f 00be
000003b0: 0b18 e9bd 65d2 b03e d83e d4bd 96eb 873e
000003c0: a3e9 5bbe 8eab 1bbd 6712 3fbc a686 fabb
000003d0: 45ce 413e 941c 03be eda3 34be 1434 a8be
000003e0: e035 83be fab3 9fbe b5a5 563e e6f2 823e
000003f0: ef2c 953e d1f6 8fbe 4281 a53e fc39 003d
-0.11231116 0.32316387 -0.16001691 -0.06186051 -0.25589386 0.3794575 0.043085724 -0.11944848
-0.17010058 -0.18211353 0.28260353 -0.1335892 0.15644725 0.1129964 -0.027619647 -0.20558852
-0.09156962 -0.2835119 0.13332014 -0.10222706 -0.03913196 -0.062151115 0.35715038 -0.20135288
0.2542632 -0.026670594 -0.011454249 -0.12095139 0.0863278 0.069628656 0.03134312 0.09827355
-0.2790212 -0.014772874 -0.025220508 0.36703858 -0.0462292 0.19354956 0.1339898 -0.06008671
-0.0782665 0.27694088 0.055728182 -0.20115076 -0.10059237 0.27129996 0.110132895 0.075359814
-0.026785588 0.3240551 -0.12567995 0.09821629 0.17062882 -0.10245358 0.27830812 -0.16941366
-0.074923195 -0.10581212 0.0039600846 0.29514873 0.05019837 0.19645509 0.568774 0.23993997
0.2767404 0.18505973 -0.012455615 0.24531412 -0.14202754 0.2337957 -0.20218591 0.3276305
-0.08750234 -0.21439996 0.13348226 0.333029 0.08010857 0.24543491 -0.14509705 -0.21021429
0.2737403 -0.030794133 0.18570499 -0.01289966 0.19163321 0.31171903 0.20555602 0.18350442
0.034464132 0.0023756153 -0.08652344 0.24413335 0.34208676 0.043476067 0.12440941 0.28120995
0.28691858 -0.16385972 -0.1832797 0.3682608 -0.2507327 0.011830968 -0.34551725 -0.087424725
-0.04541808 0.28527603 0.21914482 -0.39372876 0.31732878 -0.23741022 -0.17822237 -0.30066684
-0.28022218 0.2553017 0.41052777 0.28227 0.26064092 0.09421242 -0.38336435 0.44581762
0.06417531 0.013706102 -0.11271071 -0.056991253 0.161153 0.2668945 -0.11494723 0.11297499
0.2997458 0.107475944 -0.29066083 -0.3412376 -0.26099634 -0.3659032 -0.0653895 -0.055561956
-0.22758143 0.24610342 0.22225204 0.073682725 -0.24273221 -0.24586551 0.23922575 0.19858526
0.009552284 0.22350505 0.30542392 0.1581872 0.00066092383 0.13587229 0.10518781 0.3622531
0.20660634 -0.12512745 -0.16088918 0.34787944 0.12489862 -0.013750502 0.13538097 0.3292105
0.18580548 0.2632762 0.05079106 -0.13903114 0.16924006 0.36569914 0.13769382 0.44459906
-0.20346542 0.4888969 0.02880847 -0.2815326 0.42894295 0.1326864 -0.20970939 -0.38188288
0.34176034 -0.2208966 -0.3525282 0.24584593 -0.27964726 -0.08730778 0.062082857 -0.3113149
0.22088596 -0.29217005 0.34597588 -0.16556796 0.2264551 -0.21791153 -0.2367719 -0.06240241
-0.086075194 -0.052432153 0.16017187 0.10710062 0.040772766 -0.36885032 -0.31365684 0.18945672
0.39912346 -0.13562584 -0.18549994 0.26705438 0.07560358 0.45691335 0.04871063 0.3768334
0.028801184 0.060640592 -0.17652826 -0.26404917 -0.22983533 -0.06993701 -0.07404926 -0.23905405
0.12545522 -0.20067006 0.12707722 -0.012497446 0.1193425 0.245918 0.12000147 -0.37319237
-0.085888796 0.3643612 0.08043197 0.39052936 -0.029380364 -0.0583256 0.13952136 0.0941814
-0.15351766 0.065325 0.12875776 -0.12530246 -0.11381539 0.34535518 -0.10363549 0.26546925
-0.21475844 -0.038005404 -0.011662102 -0.007645446 0.18926342 -0.1280387 -0.17640658 -0.32852232
-0.2562704 -0.31192 0.2096165 0.25575942 0.29135844 -0.28117993 0.32325178 0.0313053
